…
  enabled: false
  experiment: test
verbose: 100
seed: 773
data_parallel: false

[2025-05-29 19:24:01,724][nnsvs][INFO] - PyTorch version: 2.7.0+cu126
[2025-05-29 19:24:01,724][nnsvs][INFO] - cudnn.deterministic: True
[2025-05-29 19:24:01,724][nnsvs][INFO] - cudnn.benchmark: False
[2025-05-29 19:24:01,724][nnsvs][INFO] - cuDNN version: 90501
[2025-05-29 19:24:01,724][nnsvs][INFO] - Random seed: 773
[2025-05-29 19:24:01,725][nnsvs][INFO] - Use mixed precision training
[2025-05-29 19:24:01,955][nnsvs][INFO] - NPSSMDNMultistreamParametricModel(
  (lf0_model): BiLSTMResF0NonAttentiveDecoder(
    (emb): Embedding(61, 256)
    (fc_in): Linear(in_features=11, out_features=256, bias=True)
    (ff): Sequential(
      (0): Linear(in_features=256, out_features=256, bias=True)
      (1): ReLU()
      (2): Linear(in_features=256, out_features=256, bias=True)
      (3): ReLU()
      (4): Linear(in_features=256, out_features=256, bias=True)
      (5): ReLU()
    )
    (conv): Sequential(
      (0): ReflectionPad1d((3, 3))
      (1): Conv1d(257, 128, kernel_size=(7,), stride=(1,))
      (2): BatchNorm1d(128, eps=1e-05, momentum=0.1, affine=True, track_running_stats=True)
      (3): ReLU()
      (4): ReflectionPad1d((3, 3))
      (5): Conv1d(128, 128, kernel_size=(7,), stride=(1,))
      (6): BatchNorm1d(128, eps=1e-05, momentum=0.1, affine=True, track_running_stats=True)
      (7): ReLU()
      (8): ReflectionPad1d((3, 3))
      (9): Conv1d(128, 128, kernel_size=(7,), stride=(1,))
      (10): BatchNorm1d(128, eps=1e-05, momentum=0.1, affine=True, track_running_stats=True)
      (11): ReLU()
    )
    (lstm): LSTM(128, 64, num_layers=2, batch_first=True, bidirectional=True)
    (decoder): ResF0NonAttentiveDecoder(
      (lstm): ModuleList(
        (0): ZoneOutCell(
          (cell): LSTMCell(130, 256)
        )
      )
      (feat_out): Linear(in_features=385, out_features=4, bias=False)
      (conv_downsample): Conv1d(129, 129, kernel_size=(4,), stride=(4,), groups=129)
    )
  )
  (mgc_model): GaussianDiffusion(
    (denoise_fn): DiffNet(
      (input_projection): Conv1d(60, 256, kernel_size=(1,), stride=(1,))
      (diffusion_embedding): SinusoidalPosEmb()
      (mlp): Sequential(
        (0): Linear(in_features=256, out_features=1024, bias=True)
        (1): Mish()
        (2): Linear(in_features=1024, out_features=256, bias=True)
      )
      (residual_layers): ModuleList(
        (0): ResidualBlock(
          (dilated_conv): Conv1d(256, 512, kernel_size=(3,), stride=(1,), padding=(1,))
          (diffusion_projection): Linear(in_features=256, out_features=256, bias=True)
          (conditioner_projection): Conv1d(256, 512, kernel_size=(1,), stride=(1,))
          (output_projection): Conv1d(256, 512, kernel_size=(1,), stride=(1,))
        )
        (1): ResidualBlock(
          (dilated_conv): Conv1d(256, 512, kernel_size=(3,), stride=(1,), padding=(2,), dilation=(2,))
          (diffusion_projection): Linear(in_features=256, out_features=256, bias=True)
          (conditioner_projection): Conv1d(256, 512, kernel_size=(1,), stride=(1,))
          (output_projection): Conv1d(256, 512, kernel_size=(1,), stride=(1,))
        )
        (2): ResidualBlock(
          (dilated_conv): Conv1d(256, 512, kernel_size=(3,), stride=(1,), padding=(4,), dilation=(4,))
          (diffusion_projection): Linear(in_features=256, out_features=256, bias=True)
          (conditioner_projection): Conv1d(256, 512, kernel_size=(1,), stride=(1,))
          (output_projection): Conv1d(256, 512, kernel_size=(1,), stride=(1,))
        )
        (3): ResidualBlock(
          (dilated_conv): Conv1d(256, 512, kernel_size=(3,), stride=(1,), padding=(8,), dilation=(8,))
          (diffusion_projection): Linear(in_features=256, out_features=256, bias=True)
          (conditioner_projection): Conv1d(256, 512, kernel_size=(1,), stride=(1,))
          (output_projection): Conv1d(256, 512, kernel_size=(1,), stride=(1,))
        )
        (4): ResidualBlock(
          (dilated_conv): Conv1d(256, 512, kernel_size=(3,), stride=(1,), padding=(1,))
          (diffusion_projection): Linear(in_features=256, out_features=256, bias=True)
          (conditioner_projection): Conv1d(256, 512, kernel_size=(1,), stride=(1,))
          (output_projection): Conv1d(256, 512, kernel_size=(1,), stride=(1,))
        )
        (5): ResidualBlock(
          (dilated_conv): Conv1d(256, 512, kernel_size=(3,), stride=(1,), padding=(2,), dilation=(2,))
          (diffusion_projection): Linear(in_features=256, out_features=256, bias=True)
          (conditioner_projection): Conv1d(256, 512, kernel_size=(1,), stride=(1,))
          (output_projection): Conv1d(256, 512, kernel_size=(1,), stride=(1,))
        )
        (6): ResidualBlock(
          (dilated_conv): Conv1d(256, 512, kernel_size=(3,), stride=(1,), padding=(4,), dilation=(4,))
          (diffusion_projection): Linear(in_features=256, out_features=256, bias=True)
          (conditioner_projection): Conv1d(256, 512, kernel_size=(1,), stride=(1,))
          (output_projection): Conv1d(256, 512, kernel_size=(1,), stride=(1,))
        )
        (7): ResidualBlock(
          (dilated_conv): Conv1d(256, 512, kernel_size=(3,), stride=(1,), padding=(8,), dilation=(8,))
          (diffusion_projection): Linear(in_features=256, out_features=256, bias=True)
          (conditioner_projection): Conv1d(256, 512, kernel_size=(1,), stride=(1,))
          (output_projection): Conv1d(256, 512, kernel_size=(1,), stride=(1,))
        )
        (8): ResidualBlock(
          (dilated_conv): Conv1d(256, 512, kernel_size=(3,), stride=(1,), padding=(1,))
          (diffusion_projection): Linear(in_features=256, out_features=256, bias=True)
          (conditioner_projection): Conv1d(256, 512, kernel_size=(1,), stride=(1,))
          (output_projection): Conv1d(256, 512, kernel_size=(1,), stride=(1,))
        )
        (9): ResidualBlock(
          (dilated_conv): Conv1d(256, 512, kernel_size=(3,), stride=(1,), padding=(2,), dilation=(2,))
          (diffusion_projection): Linear(in_features=256, out_features=256, bias=True)
          (conditioner_projection): Conv1d(256, 512, kernel_size=(1,), stride=(1,))
          (output_projection): Conv1d(256, 512, kernel_size=(1,), stride=(1,))
        )
        (10): ResidualBlock(
          (dilated_conv): Conv1d(256, 512, kernel_size=(3,), stride=(1,), padding=(4,), dilation=(4,))
          (diffusion_projection): Linear(in_features=256, out_features=256, bias=True)
          (conditioner_projection): Conv1d(256, 512, kernel_size=(1,), stride=(1,))
          (output_projection): Conv1d(256, 512, kernel_size=(1,), stride=(1,))
        )
        (11): ResidualBlock(
          (dilated_conv): Conv1d(256, 512, kernel_size=(3,), stride=(1,), padding=(8,), dilation=(8,))
          (diffusion_projection): Linear(in_features=256, out_features=256, bias=True)
          (conditioner_projection): Conv1d(256, 512, kernel_size=(1,), stride=(1,))
          (output_projection): Conv1d(256, 512, kernel_size=(1,), stride=(1,))
        )
        (12): ResidualBlock(
          (dilated_conv): Conv1d(256, 512, kernel_size=(3,), stride=(1,), padding=(1,))
          (diffusion_projection): Linear(in_features=256, out_features=256, bias=True)
          (conditioner_projection): Conv1d(256, 512, kernel_size=(1,), stride=(1,))
          (output_projection): Conv1d(256, 512, kernel_size=(1,), stride=(1,))
        )
        (13): ResidualBlock(
          (dilated_conv): Conv1d(256, 512, kernel_size=(3,), stride=(1,), padding=(2,), dilation=(2,))
          (diffusion_projection): Linear(in_features=256, out_features=256, bias=True)
          (conditioner_projection): Conv1d(256, 512, kernel_size=(1,), stride=(1,))
          (output_projection): Conv1d(256, 512, kernel_size=(1,), stride=(1,))
        )
        (14): ResidualBlock(
          (dilated_conv): Conv1d(256, 512, kernel_size=(3,), stride=(1,), padding=(4,), dilation=(4,))
          (diffusion_projection): Linear(in_features=256, out_features=256, bias=True)
          (conditioner_projection): Conv1d(256, 512, kernel_size=(1,), stride=(1,))
          (output_projection): Conv1d(256, 512, kernel_size=(1,), stride=(1,))
        )
        (15): ResidualBlock(
          (dilated_conv): Conv1d(256, 512, kernel_size=(3,), stride=(1,), padding=(8,), dilation=(8,))
          (diffusion_projection): Linear(in_features=256, out_features=256, bias=True)
          (conditioner_projection): Conv1d(256, 512, kernel_size=(1,), stride=(1,))
          (output_projection): Conv1d(256, 512, kernel_size=(1,), stride=(1,))
        )
        (16): ResidualBlock(
          (dilated_conv): Conv1d(256, 512, kernel_size=(3,), stride=(1,), padding=(1,))
          (diffusion_projection): Linear(in_features=256, out_features=256, bias=True)
          (conditioner_projection): Conv1d(256, 512, kernel_size=(1,), stride=(1,))
          (output_projection): Conv1d(256, 512, kernel_size=(1,), stride=(1,))
        )
        (17): ResidualBlock(
          (dilated_conv): Conv1d(256, 512, kernel_size=(3,), stride=(1,), padding=(2,), dilation=(2,))
          (diffusion_projection): Linear(in_features=256, out_features=256, bias=True)
          (conditioner_projection): Conv1d(256, 512, kernel_size=(1,), stride=(1,))
          (output_projection): Conv1d(256, 512, kernel_size=(1,), stride=(1,))
        )
        (18): ResidualBlock(
          (dilated_conv): Conv1d(256, 512, kernel_size=(3,), stride=(1,), padding=(4,), dilation=(4,))
          (diffusion_projection): Linear(in_features=256, out_features=256, bias=True)
          (conditioner_projection): Conv1d(256, 512, kernel_size=(1,), stride=(1,))
          (output_projection): Conv1d(256, 512, kernel_size=(1,), stride=(1,))
        )
        (19): ResidualBlock(
          (dilated_conv): Conv1d(256, 512, kernel_size=(3,), stride=(1,), padding=(8,), dilation=(8,))
          (diffusion_projection): Linear(in_features=256, out_features=256, bias=True)
          (conditioner_projection): Conv1d(256, 512, kernel_size=(1,), stride=(1,))
          (output_projection): Conv1d(256, 512, kernel_size=(1,), stride=(1,))
        )
      )
      (skip_projection): Conv1d(256, 256, kernel_size=(1,), stride=(1,))
      (output_projection): Conv1d(256, 60, kernel_size=(1,), stride=(1,))
    )
    (encoder): FFConvLSTM(
      (emb): Embedding(61, 256)
      (fc_in): Linear(in_features=12, out_features=256, bias=True)
      (ff): Sequential(
        (0): Linear(in_features=256, out_features=512, bias=True)
        (1): ReLU()
        (2): Linear(in_features=512, out_features=512, bias=True)
        (3): ReLU()
        (4): Linear(in_features=512, out_features=512, bias=True)
        (5): ReLU()
      )
      (conv): Sequential(
        (0): ReflectionPad1d((3, 3))
        (1): Conv1d(512, 256, kernel_size=(7,), stride=(1,))
        (2): BatchNorm1d(256, eps=1e-05, momentum=0.1, affine=True, track_running_stats=True)
        (3): ReLU()
        (4): ReflectionPad1d((3, 3))
        (5): Conv1d(256, 256, kernel_size=(7,), stride=(1,))
        (6): BatchNorm1d(256, eps=1e-05, momentum=0.1, affine=True, track_running_stats=True)
        (7): ReLU()
        (8): ReflectionPad1d((3, 3))
        (9): Conv1d(256, 256, kernel_size=(7,), stride=(1,))
        (10): BatchNorm1d(256, eps=1e-05, momentum=0.1, affine=True, track_running_stats=True)
        (11): ReLU()
      )
      (lstm): LSTM(256, 128, num_layers=2, batch_first=True, bidirectional=True)
      (fc): Linear(in_features=256, out_features=256, bias=True)
    )
  )
  (bap_model): GaussianDiffusion(
    (denoise_fn): DiffNet(
      (input_projection): Conv1d(5, 128, kernel_size=(1,), stride=(1,))
      (diffusion_embedding): SinusoidalPosEmb()
      (mlp): Sequential(
        (0): Linear(in_features=128, out_features=512, bias=True)
        (1): Mish()
        (2): Linear(in_features=512, out_features=128, bias=True)
      )
      (residual_layers): ModuleList(
        (0): ResidualBlock(
          (dilated_conv): Conv1d(128, 256, kernel_size=(3,), stride=(1,), padding=(1,))
          (diffusion_projection): Linear(in_features=128, out_features=128, bias=True)
          (conditioner_projection): Conv1d(128, 256, kernel_size=(1,), stride=(1,))
          (output_projection): Conv1d(128, 256, kernel_size=(1,), stride=(1,))
        )
        (1): ResidualBlock(
          (dilated_conv): Conv1d(128, 256, kernel_size=(3,), stride=(1,), padding=(2,), dilation=(2,))
          (diffusion_projection): Linear(in_features=128, out_features=128, bias=True)
          (conditioner_projection): Conv1d(128, 256, kernel_size=(1,), stride=(1,))
          (output_projection): Conv1d(128, 256, kernel_size=(1,), stride=(1,))
        )
        (2): ResidualBlock(
          (dilated_conv): Conv1d(128, 256, kernel_size=(3,), stride=(1,), padding=(4,), dilation=(4,))
          (diffusion_projection): Linear(in_features=128, out_features=128, bias=True)
          (conditioner_projection): Conv1d(128, 256, kernel_size=(1,), stride=(1,))
          (output_projection): Conv1d(128, 256, kernel_size=(1,), stride=(1,))
        )
        (3): ResidualBlock(
          (dilated_conv): Conv1d(128, 256, kernel_size=(3,), stride=(1,), padding=(8,), dilation=(8,))
          (diffusion_projection): Linear(in_features=128, out_features=128, bias=True)
          (conditioner_projection): Conv1d(128, 256, kernel_size=(1,), stride=(1,))
          (output_projection): Conv1d(128, 256, kernel_size=(1,), stride=(1,))
        )
        (4): ResidualBlock(
          (dilated_conv): Conv1d(128, 256, kernel_size=(3,), stride=(1,), padding=(1,))
          (diffusion_projection): Linear(in_features=128, out_features=128, bias=True)
          (conditioner_projection): Conv1d(128, 256, kernel_size=(1,), stride=(1,))
          (output_projection): Conv1d(128, 256, kernel_size=(1,), stride=(1,))
        )
        (5): ResidualBlock(
          (dilated_conv): Conv1d(128, 256, kernel_size=(3,), stride=(1,), padding=(2,), dilation=(2,))
          (diffusion_projection): Linear(in_features=128, out_features=128, bias=True)
          (conditioner_projection): Conv1d(128, 256, kernel_size=(1,), stride=(1,))
          (output_projection): Conv1d(128, 256, kernel_size=(1,), stride=(1,))
        )
        (6): ResidualBlock(
          (dilated_conv): Conv1d(128, 256, kernel_size=(3,), stride=(1,), padding=(4,), dilation=(4,))
          (diffusion_projection): Linear(in_features=128, out_features=128, bias=True)
          (conditioner_projection): Conv1d(128, 256, kernel_size=(1,), stride=(1,))
          (output_projection): Conv1d(128, 256, kernel_size=(1,), stride=(1,))
        )
        (7): ResidualBlock(
          (dilated_conv): Conv1d(128, 256, kernel_size=(3,), stride=(1,), padding=(8,), dilation=(8,))
          (diffusion_projection): Linear(in_features=128, out_features=128, bias=True)
          (conditioner_projection): Conv1d(128, 256, kernel_size=(1,), stride=(1,))
          (output_projection): Conv1d(128, 256, kernel_size=(1,), stride=(1,))
        )
        (8): ResidualBlock(
          (dilated_conv): Conv1d(128, 256, kernel_size=(3,), stride=(1,), padding=(1,))
          (diffusion_projection): Linear(in_features=128, out_features=128, bias=True)
          (conditioner_projection): Conv1d(128, 256, kernel_size=(1,), stride=(1,))
          (output_projection): Conv1d(128, 256, kernel_size=(1,), stride=(1,))
        )
        (9): ResidualBlock(
          (dilated_conv): Conv1d(128, 256, kernel_size=(3,), stride=(1,), padding=(2,), dilation=(2,))
          (diffusion_projection): Linear(in_features=128, out_features=128, bias=True)
          (conditioner_projection): Conv1d(128, 256, kernel_size=(1,), stride=(1,))
          (output_projection): Conv1d(128, 256, kernel_size=(1,), stride=(1,))
        )
      )
      (skip_projection): Conv1d(128, 128, kernel_size=(1,), stride=(1,))
      (output_projection): Conv1d(128, 5, kernel_size=(1,), stride=(1,))
    )
    (encoder): FFConvLSTM(
      (emb): Embedding(61, 256)
      (fc_in): Linear(in_features=12, out_features=256, bias=True)
      (ff): Sequential(
        (0): Linear(in_features=256, out_features=256, bias=True)
        (1): ReLU()
        (2): Linear(in_features=256, out_features=256, bias=True)
        (3): ReLU()
        (4): Linear(in_features=256, out_features=256, bias=True)
        (5): ReLU()
      )
      (conv): Sequential(
        (0): ReflectionPad1d((3, 3))
        (1): Conv1d(256, 128, kernel_size=(7,), stride=(1,))
        (2): BatchNorm1d(128, eps=1e-05, momentum=0.1, affine=True, track_running_stats=True)
        (3): ReLU()
        (4): ReflectionPad1d((3, 3))
        (5): Conv1d(128, 128, kernel_size=(7,), stride=(1,))
        (6): BatchNorm1d(128, eps=1e-05, momentum=0.1, affine=True, track_running_stats=True)
        (7): ReLU()
        (8): ReflectionPad1d((3, 3))
        (9): Conv1d(128, 128, kernel_size=(7,), stride=(1,))
        (10): BatchNorm1d(128, eps=1e-05, momentum=0.1, affine=True, track_running_stats=True)
        (11): ReLU()
      )
      (lstm): LSTM(128, 64, num_layers=2, batch_first=True, bidirectional=True)
      (fc): Linear(in_features=128, out_features=128, bias=True)
    )
  )
  (vuv_model): FFConvLSTM(
    (emb): Embedding(61, 256)
    (fc_in): Linear(in_features=72, out_features=256, bias=True)
    (ff): Sequential(
      (0): Linear(in_features=256, out_features=256, bias=True)
      (1): ReLU()
      (2): Linear(in_features=256, out_features=256, bias=True)
      (3): ReLU()
      (4): Linear(in_features=256, out_features=256, bias=True)
      (5): ReLU()
    )
    (conv): Sequential(
      (0): ReflectionPad1d((3, 3))
      (1): Conv1d(256, 128, kernel_size=(7,), stride=(1,))
      (2): BatchNorm1d(128, eps=1e-05, momentum=0.1, affine=True, track_running_stats=True)
      (3): ReLU()
      (4): ReflectionPad1d((3, 3))
      (5): Conv1d(128, 128, kernel_size=(7,), stride=(1,))
      (6): BatchNorm1d(128, eps=1e-05, momentum=0.1, affine=True, track_running_stats=True)
      (7): ReLU()
      (8): ReflectionPad1d((3, 3))
      (9): Conv1d(128, 128, kernel_size=(7,), stride=(1,))
      (10): BatchNorm1d(128, eps=1e-05, momentum=0.1, affine=True, track_running_stats=True)
      (11): ReLU()
    )
    (lstm): LSTM(128, 64, num_layers=2, batch_first=True, dropout=0.1, bidirectional=True)
    (fc): Linear(in_features=128, out_features=1, bias=True)
  )
)
[2025-05-29 19:24:01,958][nnsvs][INFO] - Number of trainable params: 23.463 million
[2025-05-29 19:24:02,722][nnsvs][DEBUG] - [before] Size of dataset: 3550
[2025-05-29 19:24:02,722][nnsvs][DEBUG] - [before] maximum length: 1599
[2025-05-29 19:24:02,722][nnsvs][DEBUG] - [before] minimum length: 368
[2025-05-29 19:24:02,722][nnsvs][DEBUG] - [before] mean length: 1004.8208450704225
…
