…
  in_scaler_path: dump/opencpop/norm/in_duration_scaler.joblib
  out_scaler_path: dump/opencpop/norm/out_duration_scaler.joblib
mlflow:
  enabled: false
  experiment: test
verbose: 100
seed: 773
data_parallel: false

[2025-05-29 17:31:34,679][nnsvs][INFO] - PyTorch version: 2.7.0+cu126
[2025-05-29 17:31:34,680][nnsvs][INFO] - cudnn.deterministic: True
[2025-05-29 17:31:34,680][nnsvs][INFO] - cudnn.benchmark: False
[2025-05-29 17:31:34,680][nnsvs][INFO] - cuDNN version: 90501
[2025-05-29 17:31:34,680][nnsvs][INFO] - Random seed: 773
[2025-05-29 17:31:34,775][nnsvs][INFO] - VariancePredictor(
  (conv): Sequential(
    (0): Sequential(
      (0): Conv1d(68, 256, kernel_size=(5,), stride=(1,), padding=(2,))
      (1): ReLU()
      (2): LayerNorm((256,), eps=1e-12, elementwise_affine=True)
      (3): Dropout(p=0.5, inplace=False)
    )
    (1): Sequential(
      (0): Conv1d(256, 256, kernel_size=(5,), stride=(1,), padding=(2,))
      (1): ReLU()
      (2): LayerNorm((256,), eps=1e-12, elementwise_affine=True)
      (3): Dropout(p=0.5, inplace=False)
    )
    (2): Sequential(
      (0): Conv1d(256, 256, kernel_size=(5,), stride=(1,), padding=(2,))
      (1): ReLU()
      (2): LayerNorm((256,), eps=1e-12, elementwise_affine=True)
      (3): Dropout(p=0.5, inplace=False)
    )
    (3): Sequential(
      (0): Conv1d(256, 256, kernel_size=(5,), stride=(1,), padding=(2,))
      (1): ReLU()
      (2): LayerNorm((256,), eps=1e-12, elementwise_affine=True)
      (3): Dropout(p=0.5, inplace=False)
    )
    (4): Sequential(
      (0): Conv1d(256, 256, kernel_size=(5,), stride=(1,), padding=(2,))
      (1): ReLU()
      (2): LayerNorm((256,), eps=1e-12, elementwise_affine=True)
      (3): Dropout(p=0.5, inplace=False)
    )
  )
  (mdn_layer): MDNLayer(
    (log_pi): Linear(in_features=256, out_features=4, bias=True)
    (log_sigma): Linear(in_features=256, out_features=4, bias=True)
    (mu): Linear(in_features=256, out_features=4, bias=True)
  )
)
[2025-05-29 17:31:34,775][nnsvs][INFO] - Number of trainable params: 1.405 million
[2025-05-29 17:31:35,402][nnsvs][DEBUG] - Fixed batch size: 8
[2025-05-29 17:31:35,436][nnsvs][DEBUG] - Fixed batch size: 8
[2025-05-29 17:31:35,450][nnsvs][INFO] - Number of iterations per epoch: 444
[2025-05-29 17:31:35,450][nnsvs][INFO] - Number of max_train_steps is set based on nepochs: 44400
…
